misc/satvelfororbparam.npy (npy, 16128 bytes, 1 tensors)

array f8 [1000, 2]
0	0xc013dee418fe0a0b	-4.9676669983914605
1	0x401191d5fa3795a3	4.392417821543321
2	0xc015ae73401c139c	-5.420361520494136
3	0x401275c8c79e0674	4.61502372648248
4	0xc015ab3307945abd	-5.4171868500040405
5	0x40127b606c920df1	4.620485016264397
6	0xc015a80be1796cda	-5.414107821499067
7	0x40128105f187f271	4.625999235079335
8	0xc015a4fda0fe6433	-5.411123767401523
9	0x401286b9aafd3c32	4.631567641931769
10	0xc015a2080fe516d8	-5.408233879430291
11	0x40128c7bf4c1dda2	4.637191604931475
12	0xc0159f2b0a63e361	-5.405437624308292
13	0x4012924d3464ee5b	4.642872637424797
14	0xc0159c66844cfec0	-5.402734820556077
15	0x4012982dd2faab65	4.64861230521169
16	0xc01599ba64ddb05d	-5.400125099211519
17	0x40129e1e3e95aea0	4.654412248502609
18	0xc0159726b0b2ea49	-5.397608529014698
19	0x4012a41eea1d365a	4.660274179490068
20	0xc01594ab6cabfdc1	-5.395185182569038
21	0x4012aa3055e23ff9	4.6662000102369285
22	0xc0159248abb5542a	-5.3928553418564125
23	0x4012b052fcc59900	4.6721915717700995
24	0xc0158ffe8dab3e1c	-5.390619481636829
25	0x4012b6876936efa1	4.678250926950484
26	0xc0158dcd3a87fe32	-5.388478197622634
27	0x4012bcce28590a98	4.684380178866057
28	0xc0158bb4f0b280ad	-5.38643241967672
29	0x4012c327d36a9bca	4.690581611043806
30	0xc01589b5f3416c0e	-5.384483147495315
31	0x4012c99508f5f18c	4.696857585917666
32	0xc01587d08d204fcd	-5.382631497475768
33	0x4012d01662380295	4.703210386913857
34	0xc01586052764a9a9	-5.380879035490957
35	0x4012d6ac9368752a	4.70964269948062
36	0xc01584542d7c4288	-5.379227362355444
37	0x4012dd584ccc16c2	4.716157150227163
38	0xc01582be20f7c8b1	-5.377678408740551
39	0x4012e41a4d60d56e	4.722756585154782
40	0xc01581438aa905b6	-5.376234213415435
41	0x4012eaf34f547d81	4.729443778545261
42	0xc0157fe50e810d4c	-5.3748972193018965
43	0x4012f1e422d2e5d8	4.736221832391912
44	0xc0157ea35cd0e6cd	-5.373670053720798
45	0x4012f8ed9a1eea41	4.74309387983027
46	0xc0157d7f428eaac1	-5.372555770833686
47	0x4013001096f52b2e	4.750063284601124
48	0xc0157c79988ccd8b	-5.37155760154145
49	0x4013074dfdbe3493	4.757133450254645
50	0xc0157b934d86a31d	-5.370679103224373
51	0x40130ea6bb73671a	4.764307907980561
52	0xc0157acd7401f37c	-5.369924366587721
53	0x4013161bd113cba6	4.771590487321111
54	0xc0157a292a088167	-5.369297653931745
55	0x40131dae3d37341a	4.7789849820083194
56	0xc01579a7b4d29bcd	-5.368803811411408
57	0x4013255f12a6447f	4.786495486639182
58	0xc015794a77b34a8d	-5.3684481337719605
59	0x40132d2f6ee00aa7	4.794126255440154
60	0xc0157912f10411fb	-5.368236318467548
61	0x4013352075a7d066	4.801881636016423
62	0xc0157902cae0c5f6	-5.36817471501262
63	0x40133d335c3192c9	4.809766235852927
64	0xc015791bc8183dfc	-5.368270040969488
65	0x4013456958ebc395	4.817784680738346
66	0xc015795fe14d8cc0	-5.368529816015496
67	0x40134dc3b5de2466	4.82594188850735
68	0xc01579d146b2a5a7	-5.368962387708428
69	0x40135643d08b0b62	4.834243067251778
70	0xc0157a7246bc2231	-5.369576554520379
71	0x40135eeb02844e4f	4.842693366360961
72	0xc0157b457680afdb	-5.3703821674389145
73	0x401367babc8047a2	4.851298280076579
74	0xc0157c4da68cfb56	-5.371389963488431
75	0x401370b479c6c649	4.860063460118519
76	0xc0157d8de5f6a2fc	-5.3726116115365095
77	0x401379d9bc434343	4.868994657140152
78	0xc0157f099145d3f1	-5.374059934508282
79	0x4013832c129eddff	4.8780978116478755
80	0xc01580c4594d0157	-5.375749011349703
81	0x40138cad15d2af4c	4.887379017814805
82	0xc01582c238e11995	-5.3776940238370985
83	0x4013965e5c6c4ce6	4.896844333753711
84	0xc0158507b4bd196e	-5.379912208596904
85	0x4013a041985a1daa	4.906500225544201
86	0xc015879994a4119e	-5.382421801103559
87	0x4013aa58685d835f	4.916352873523322
88	0xc0158a7d4409e564	-5.385243476013191
89	0x4013b4a47ba23411	4.926408702635869
90	0xc0158db89965a727	-5.3883995025915175
91	0x4013bf27722c92d8	4.936673912020261
92	0xc01591520a3b6543	-5.391914520144669
93	0x4013c9e2df6179e9	4.94715451271484
94	0xc0159550baf247f0	-5.395815773999843
95	0x4013d4d8489c7e65	4.957856306602115
96	0xc01599bc8c9e39b6	-5.400133320958437
97	0x4013e009175f1301	4.968784680536147
98	0xc0159e9e3671262b	-5.404900408416817
99	0x4013eb768e6b0d59	4.979944443973488
100	0xc015a3ff4c4cddeb	-5.410153572265226
101	0x4013f721b876b83c	4.991339571233819
102	0xc015a9ea80ef87f2	-5.41593362295133
103	0x4014030b5b8cbaab	5.002973013367106
104	0xc015b06b8f2b2b97	-5.422285305986313
105	0x40140f33d8bfb41f	5.014846216869983
106	0xc015b78f91069123	-5.429258600259604
107	0x40141b9b1a09f6a7	5.026958853586314
108	0xc015bf6528fe2ca8	-5.436909332765175
109	0x4014284071c4ce0a	5.039308335911764
110	0xc015c7fc54cbe55c	-5.445298504776783
111	0x40143522553fb926	5.051888782514913
112	0xc015d166fbe3c995	-5.454494415071527
113	0x4014423e3cec8c86	5.0646905440691
114	0xc015dbb90ca6cf15	-5.464573095017632
115	0x40144f90597afecb	5.077699087268864
116	0xc015e708854f5438	-5.475618441550118
117	0x40145d1333ada059	5.090893561813652
118	0xc015f36dc2e5e88c	-5.487723393709654
119	0x40146abf46dfa743	5.104245288277357
120	0xc0160103da1d17e6	-5.500991256738393
121	0x4014788a79936325	5.11771573984223
122	0xc0160fe86a208d4f	-5.5155350286834866
123	0x40148667723985c7	5.13125399089899
124	0xc016203c16ecf850	-5.5314792234549515
125	0x40149444cb77ff76	5.144793681334582
126	0xc016322260abd680	-5.5489592652207875
127	0x4014a20c16afdd18	5.158249239429345
128	0xc01645c1bf2ba673	-5.568121897734829
129	0x4014afa0a1d8364f	5.171511200734655
130	0xc0165b4318c5d9a1	-5.589123141361058
131	0x4014bcde0f0080a2	5.184440836339634
132	0xc01672d15de0ec2c	-5.612126795628722
133	0x4014c9968f5245af	5.196863402744767
134	0xc0168c98500e7f59	-5.637299776921133
135	0x4014d590f2ced3c2	5.208560747026185
136	0xc016a8c2e778cea3	-5.66480600046967
137	0x4014e08665734220	5.21926268115979
138	0xc016c7789ba7c793	-5.694796020617917
139	0x4014ea20296f82bc	5.228638312750885
140	0xc016e8d9d9c9e8eb	-5.727393534611319
141	0x4014f1f5263431dc	5.236286732612339
142	0xc0170cfa95e1d275	-5.762674657734
143	0x4014f78839ab4c50	5.2417305956651745
144	0xc01733db5f15b124	-5.800641523074123
145	0x4014fa476ed3058e	5.24441311991667
146	0xc0175d60aaf35ed7	-5.841189070800929
147	0x4014f98d151d3d87	5.24370224944085
148	0xc0178948891aedee	-5.884065763729707
149	0x4014f4a4040dc1a0	5.238906920756932
150	0xc017b71fc76e1dfc	-5.928832164855972
151	0x4014ead036d4ca4b	5.229309899079975
152	0xc017e6384bb3cdec	-5.974824126099957
153	0x4014db5d0306954c	5.214221999432379
154	0xc01815a383a447fb	-6.021131569768836
155	0x4014c5b1472098d2	5.193059073795853
156	0xc018443485905578	-6.066606604513588
157	0x4014a9686b03c239	5.165437385658657
158	0xc018708d6b575b2f	-6.1099144718235
159	0x4014866cd37936ae	5.131274513505259
160	0xc01899397f9e4f0b	-6.149633401906395
161	0x40145d0dbef2bcc2	5.0908727489142525
162	0xc018bcd259991ce6	-6.18439617154147
163	0x40142e0987fcb49e	5.04495823364155
164	0xc018da297d20e88d	-6.213048892148561
165	0x4013fa868b807c41	4.994653873173832
166	0xc018f06cfdb20f5b	-6.234790767662925
167	0x4013c3f956aab95e	4.941380838556453
168	0xc018ff3dddbc8459	-6.24925943816296
169	0x40138bfcba97e46a	4.886706271668212
170	0xc01906b2de2c08b6	-6.256541701734184
171	0x4013542520f5425f	4.832172884911954
172	0xc0190748d1c56ffa	-6.257113721538184
173	0x40131dd97b84dc9b	4.779149942383039
174	0xc01901c698e4b43f	-6.251734150847425
175	0x4012ea39039cd575	4.728733116576554
176	0xc018f71ce8a62926	-6.241321215764662
177	0x4012ba1084eea604	4.6817036410006985
178	0xc018e84918920468	-6.22684133902758
179	0x40128ddc89e60f6f	4.638536600748792
180	0xc018d63e9c70c90b	-6.209223217376585
181	0x401265d4b7abc29f	4.599444265230573
182	0xc018c1d8e135b4c2	-6.189303892996749
183	0x401241facca78499	4.564433286404118
184	0xc018abd4337bbef1	-6.167801670482491
185	0x4012222a2ac70d7a	4.533363979720315
186	0xc01894cc035c5b33	-6.145309498321512
187	0x401206257c8b119c	4.506002374637685
188	0xc0187d3c95b7aead	-6.122301425300674
189	0x4011eda19a6bd766	4.482061779815785
190	0xc018658682e4515c	-6.099145932374395
191	0x4011d84d8ebe5582	4.4612333587332405
192	0xc0184df2f46112f4	-6.076122110772065
193	0x4011c5d814b529a9	4.443207095677658
194	0xc01836b7ddade669	-6.053435767878548
195	0x4011b5f31a840646	4.427685179050576
196	0xc0181ffbd2d20188	-6.0312340679814795
197	0x4011a855d0d2380c	4.414389860945459
198	0xc01809d962d0528d	-6.009618324246401
199	0x40119cbda3c3ecc3	4.403067168076805
200	0xc017f461d4caf170	-5.988654446493783
201	0x401192ee94867a95	4.393488236148774
202	0xc017df9f6a0b8dd4	-5.968381554560853
203	0x40118ab3240f9337	4.3854489931589375
204	0xc017cb971a1f9d22	-5.948818596057466
205	0x401183dbd9b5729d	4.378768350314798
206	0xc017b849f7e40460	-5.929969666759547
207	0x40117e3ee19056b7	4.373286747393357
208	0xc017a5b65d6276c5	-5.911828478941691
209	0x401179b78fd8f877	4.368864295595009
210	0xc01793d884b59c79	-5.894380639633817
211	0x4011762598a36fa7	4.365377793288565
212	0xc01782ab60bf339c	-5.877606879873294
213	0x4011736cc8cef7ff	4.362719667084092
214	0xc0177228efe1720a	-5.8614842873908035
215	0x4011717462f4adeb	4.360795541938823
216	0xc017624ab966b142	-5.845988175289962
217	0x40117026d6ac05b8	4.359523157357607
218	0xc0175309ea38983a	-5.831092509941351
219	0x40116f712f23488f	4.358830200699358
220	0xc017445f8b70213d	-5.816770724028456
221	0x40116f42c9883722	4.358653210581709
222	0xc0173644b630e53f	-5.802996489271492
223	0x40116f8d12737595	4.358936584755971
224	0xc01728b2a298a477	-5.789743938986354
225	0x401170433ae26299	4.359631462161496
226	0xc0171ba2bed454c6	-5.776988012036957
227	0x4011715a05e3513d	4.360694972991323
228	0xc0170f0eb0d1ee45	-5.764704478085666
229	0x401172c7851fbf2d	4.362089233458204
230	0xc01702f05e3177c5	-5.75287005593231
231	0x40117482f8b22770	4.363780866502438
232	0xc016f7420fc7576f	-5.741462942640154
233	0x40117684b5b814fd	4.36574062286422
234	0xc016ebfe40dae938	-5.730462087022083
235	0x401178c5ecac1f92	4.367942522054266
236	0xc016e11fb33da33f	-5.719847489010873
237	0x40117b408b6b3135	4.370363405625814
238	0xc016d6a16bd21fea	-5.709600147914879
239	0x40117def3688509d	4.37298283774376
240	0xc016cc7ed60473b3	-5.699702590963102
241	0x401180cd339d0d6c	4.3757827820403286
242	0xc016c2b390387b24	-5.690138104865387
243	0x401183d654204dd5	4.378747286292726
244	0xc016b93b73ae99f4	-5.680890853435347
245	0x40118706d837d9ad	4.381862047585327
246	0xc016b0129df697f9	-5.671946018386728
247	0x40118a5b690afb9f	4.385114327712386
248	0xc016a7355ca37e72	-5.663289496878507
249	0x40118dd10d51bfd5	4.388492782702049
250	0xc0169ea05417c811	-5.654908479644306
251	0x401191652fad0abd	4.391987557350771
252	0xc016965035f0ff86	-5.646790354570731
253	0x401195156d22604b	4.395589547370103
254	0xc0168e41fe7a53a8	-5.638923622337565
255	0x401198dfb0c07447	4.399290811296914
